Reinforcement learning/best_dqn_model.pth (torch, 21326 bytes, 6 tensors)

fc1.weight f4 [64, 4]
-0.087782055 -0.27840737 0.1380897 -0.07509898 0.46829128 0.44331086 0.013960637 0.029080838
-0.4450867 0.39376113 0.14369677 -0.479248 -0.26225954 0.2340555 -0.055001557 0.3832841
0.16295406 -0.38910887 0.040300336 -0.40018508 0.25761932 -0.03515887 0.5526028 0.08026643
0.24982326 -0.48561087 0.5635218 0.5133972 -0.02639103 -0.25310606 -0.34555352 -0.48369747
0.4035079 0.16298094 -0.15963611 0.18188724 0.12923715 -0.0039976877 0.064169675 -0.13840008
0.077491045 0.08976054 -0.33598888 -0.24391752 -0.020300793 0.1033342 0.4213646 -0.1600813
0.23757507 0.25973096 -0.32099387 -0.27250174 -0.20780194 -0.41612455 -0.00802447 0.034453027
-0.08946845 0.3502017 -0.15714726 0.037989352 0.3541183 -0.11579508 0.59622353 0.07244959
0.4077561 0.21735653 0.20459872 -0.008053272 -0.2997148 0.42629343 0.012836681 0.23133703
-0.23128535 -0.47468236 -0.4624804 0.37534454 0.00028009416 -0.29683432 0.29815 0.004326529
0.21095139 0.3898028 -0.33926335 -0.27829197 -0.086765915 -0.30426574 -0.21177712 -0.106325805
0.340307 -0.16979535 -0.0117624765 -0.35413316 0.044760965 0.030863455 0.2816734 -0.2014478
-0.17741932 0.16076425 0.08972491 0.2778489 -0.48427477 -0.6085015 0.321982 -0.41792008
0.37101814 -0.013553493 -0.19442819 0.4535622 -0.46542513 -0.4709224 -0.4277931 0.30559975
-0.049751893 0.3107657 0.11784905 -0.13382544 -0.3613239 0.2271541 -0.2840048 0.5378443
0.1089203 -0.2890772 0.13114603 -0.39231628 0.4088492 -0.26987702 -0.27059418 -0.16138278
0.38941294 0.26879418 0.4999331 0.073951684 -0.3682592 0.16369033 -0.31723464 -0.21204412
-0.17348005 0.29941362 -0.1776514 -0.42061865 -0.4935354 0.11294205 0.5536685 -0.21939334
0.32580122 0.17579588 -0.09695737 -0.06673218 0.23939054 0.16103056 -0.14013115 0.24327767
-0.37948972 -0.25570828 -0.22904816 0.2850395 -0.015796475 -0.20501183 0.73764724 -0.59493536
-0.1605124 0.35579953 -0.32455137 0.4305693 0.27405027 -0.4008614 -0.26129216 0.4121078
-0.4587498 0.29546672 -0.58960825 -0.20407027 -0.087871134 0.050391197 0.071729004 -0.27933323
-0.22453037 0.09074971 0.10380019 0.452553 -0.23494089 0.3199554 -0.05793614 0.086445436
0.20498459 -0.2146655 0.3246085 0.48785034 0.29673633 -0.46697524 -0.21195477 0.24794729
0.25030205 -0.04336639 -0.201417 -0.031173375 -0.36846864 -0.7648178 -1.1257831 0.47110984
0.44782203 -0.10615281 0.035643063 0.29025173 -0.25531214 0.40153304 -0.285317 -0.039115198
0.35595828 0.29239142 0.30017772 0.11850712 -0.18166652 -0.273888 -0.18490204 -0.43471894
-0.3854656 0.131194 0.23266843 0.21056381 0.30868694 -0.5208689 0.14178933 -0.12769973
-0.029356282 0.39834988 -0.17885117 0.47631726 0.15150702 0.3695006 0.44226956 -0.1750751
-0.4613839 -0.484564 0.47891405 -0.19415732 0.2831863 -0.18969281 -0.119995445 0.34322393
0.06082326 -0.037040174 -0.10774827 0.26238686 -0.19544375 -0.49674928 -0.39157003 0.099974215
-0.17574726 -0.100324586 -0.074220926 -0.04286746 -0.22091924 0.30362558 0.42824277 0.4562091
00000000: 14c7 b3bd 698b 8ebe 6367 0d3e 7ecd 99bd
00000010: e0c3 ef3e a4f9 e23e 28bb 643c f03a ee3c
00000020: 67e2 e3be 0f9b c93e 3f25 133e fe5f f5be
00000030: e246 86be 3fac 6f3e 5049 61bd d03d c43e
00000040: 6edd 263e 4739 c7be f711 253d 0fe5 ccbe
00000050: aee6 833e bf02 10bd 6177 0d3f ba62 a43d
00000060: abd1 7f3e fda1 f8be f742 103f 006e 033f
00000070: 0032 d8bc 1e97 81be 64ec b0be 32a7 f7be
00000080: 9698 ce3e 7ae4 263e a677 23be a640 3a3e
00000090: be56 043e 09ff 82bb 646b 833d c0b8 0dbe
000000a0: a0b3 9e3d 60d4 b73d bc06 acbe 84c5 79be
000000b0: d94d a6bc e2a0 d33d 1abd d73e 5aec 23be
000000c0: e146 733e 75fb 843e 4f59 a4be 5985 8bbe
000000d0: 08ca 54be 470e d5be 1179 03bc 9e1e 0d3d
000000e0: 3c3b b7bd a34d b33e 36eb 20be b99a 1b3d
000000f0: fe4e b53e f925 edbd 1ba2 183f 7360 943d
00000100: 68c5 d03e b692 5e3e 5482 513e dff1 03bc
00000110: 3874 99be 2243 da3e f150 523c 9de3 6c3e
00000120: 11d6 6cbe 9109 f3be 3bca ecbe 292d c03e
00000130: 9ad9 9239 abfa 97be 1ea7 983e 8ec5 8d3b
00000140: a403 583e 3c94 c73e edb3 adbe 497c 8ebe
00000150: 54b2 b1bd b8c8 9bbe 1adc 58be 58c1 d9bd
00000160: b83c ae3e d5de 2dbe 67b7 40bc f150 b5be
00000170: 4657 373d 5bd5 fc3c 7f37 903e 5548 4ebe
00000180: 69ad 35be 629f 243e b2c1 b73d 3642 8e3e
00000190: ddf2 f7be c1c6 1bbf d3da a43e 9ff9 d5be
000001a0: 17f6 bd3e 780f 5ebc 2f18 47be 4e39 e83e
000001b0: 344c eebe be1c f1be b207 dbbe 9277 9c3e
000001c0: a4c8 4bbd af1c 9f3e d85a f13d 8909 09be
000001d0: 72ff b8be 169b 683e 1469 91be 2ab0 093f
000001e0: 9b11 df3d ed01 94be 254b 063e aedd c8be
000001f0: af54 d13e 522d 8abe 528b 8abe 8741 25be
00000200: 2261 c73e 649f 893e 3bf7 ff3e fb73 973d
00000210: 788c bcbe 709e 273e 946c a2be 1822 59be
00000220: c1a4 31be be4c 993e 40ea 35be 545b d7be
00000230: acb0 fcbe 294e e73d 38bd 0d3f a6a8 60be
00000240: 6bcf a63e d603 343e 9691 c6bd e2aa 88bd
00000250: cb22 753e 32e5 243e 8a7e 0fbe c81d 793e
00000260: 7a4c c2be 32ec 82be 9a8b 6abe b3f0 913e
00000270: 9c67 81bc 9fee 51be 73d6 3c3f af4d 18bf
00000280: 5d5d 24be 5b2b b63e 992b a6be 9473 dc3e
00000290: 5150 8c3e b53d cdbe 16c8 85be cbff d23e
000002a0: 41e1 eabe 6a47 973e 91f0 16bf ccf7 50be
000002b0: c8f5 b3bd 0067 4e3d a8e6 923d c404 8fbe
000002c0: 4aeb 65be fcda b93d 3295 d43d 07b5 e73e
000002d0: 5894 70be 32d1 a33e 724e 6dbd 4e0a b13d
000002e0: 7be7 513e 46d1 5bbe 1633 a63e 85c7 f93e
000002f0: d3ed 973e 6117 efbe ac0a 59be e5e5 7d3e
00000300: 9727 803e f5a0 31bd 4240 4ebe 4e5f ffbc
00000310: eca7 bcbe 19cb 43bf a919 90bf 4f35 f13e
00000320: ee48 e53e a566 d9bd 76fe 113d e09b 943e
00000330: 46b8 82be bd95 cd3e 1215 92be 4237 20bd
00000340: 2a40 b63e 54b4 953e e5b0 993e dcb3 f23d
00000350: ca06 3abe 0c3b 8cbe f656 3dbe 7b93 debe
00000360: bf5b c5be b857 063e a240 6e3e 0a9e 573e
00000370: 370c 9e3e aa57 05bf 3931 113e b8c3 02be
00000380: 967c f0bc 84f4 cb3e c324 37be dbdf f33e
00000390: a824 1b3e 2f2f bd3e 2871 e23e e346 33be
000003a0: 833a ecbe c618 f8be 3934 f53e 2dd1 46be
000003b0: cbfd 903e d53e 42be 2cc0 f5bd 0cbb af3e
000003c0: d021 793d 70b7 17bd 20ab dcbd 9257 863e
000003d0: 6822 48be ec55 febe de7b c8be 48bf cc3d
000003e0: 17f7 33be fa76 cdbd 2401 98bd ca95 2fbd
000003f0: a738 62be d074 9b3e a342 db3e 3d94 e93e

fc1.bias f4 [64]
2.2174518 1.8212337 2.0582614 1.4075196 2.2740595 1.2852188 1.4660797 -0.28228772
1.4606626 1.9819903 -0.2582174 2.056625 2.066514 1.8039689 1.6864378 2.230913
1.6680644 1.4708998 -0.39436385 1.8962177 2.1648526 2.023538 2.212243 1.8101331
2.301412 1.5645367 2.255443 -0.2955168 1.9457864 1.5487854 1.8993012 2.2119546
1.482034 -0.315525 1.6678735 2.125486 1.5193743 1.5196502 2.0265217 0.8076998
1.8456627 1.2574635 1.258083 -0.117548645 1.5176975 2.1034997 2.0309286 1.9190245
2.2540007 -0.411697 1.5263923 1.9228383 1.5705285 2.2306752 2.1490605 1.72455
1.7846019 1.8710725 1.9914361 1.7352078 -0.3451354 -0.1912716 2.0671952 1.7924497
00000000: bbea 0d40 301e e93f 8eba 0340 9a29 b43f
00000010: 318a 1140 0d82 a43f 80a8 bb3f 0488 90be
00000020: fef6 ba3f dcb1 fd3f 1235 84be be9f 0340
00000030: c441 0440 74e8 e63f 32dd d73f 47c7 0e40
00000040: 2283 d53f 7246 bc3f 0fea c9be 43b7 f23f
00000050: f28c 0a40 a681 0140 6495 0d40 71b2 e73f
00000060: 564a 1340 bd42 c83f 2e59 1040 fa4d 97be
00000070: 870f f93f 9a3e c63f 4d1c f33f aa90 0d40
00000080: 4ab3 bd3f 7e8c a1be e17c d53f f607 0840
00000090: db7a c23f e683 c23f 88b2 0140 6ac5 4e3f
000000a0: ad3e ec3f 90f4 a03f dd08 a13f 58bd f0bd
000000b0: e943 c23f bd9f 0640 bcfa 0140 98a2 f53f
000000c0: 8c41 1040 f3c9 d2be d360 c33f 911f f63f
000000d0: 1407 c93f 62c3 0e40 358a 0940 0ebe dc3f
000000e0: d66d e43f 4e7f ef3f 61e7 fe3f 4a1b de3f
000000f0: 96b5 b0be b4dc 43be ed4c 0440 fe6e e53f

fc2.weight f4 [64, 64]
1.5159307 1.0947618 1.4562352 1.0539222 1.4677877 0.72120786 0.91835 -0.10611427
0.8795387 1.2392013 0.12060355 1.3558141 1.4580442 1.3176949 1.3236697 1.2551383
1.1216664 1.076173 -0.05483314 1.2315255 1.2847029 1.6950928 1.2752122 1.1936148
1.2662137 1.5139296 1.2851385 0.057471246 1.2897139 1.2803645 1.4925727 1.4160336
0.75611836 -0.054544777 1.3811193 1.3559092 1.1403192 0.9473714 1.4789581 0.96954334
1.0850319 0.8923288 1.6341853 -0.028333664 1.0821972 1.2102165 1.1151059 1.2776229
1.4151355 0.6218571 0.99467194 1.2981262 0.8091057 1.6899384 1.1954707 1.3212416
1.1836816 1.1692182 1.537729 1.2626446 0.05438158 -0.055275723 1.424555 1.0443435
-0.09231722 -0.08401929 -0.023059413 -0.095522165 0.11607382 -0.07946491 0.10671902 -0.024590299
-0.017329931 -0.085388586 0.010107115 0.025765255 0.11009328 0.0050902814 0.0030424893 -0.00539732
0.04836057 0.005451381 0.09078114 0.061728433 0.030651972 -0.0648952 0.085594505 0.0017678887
-0.0046147555 -0.046812207 -0.05666502 -0.0446077 -0.004727483 -0.040480077 0.03700973 -0.08105573
0.020804346 -0.11647594 -0.03407918 -0.022181392 0.039369583 0.08274658 0.0031647682 -0.08275215
0.041977525 0.028314099 -0.1005044 -0.043557107 0.09200132 -0.04499215 -0.10055108 0.036365047
0.0850613 -0.027535513 -0.06653561 0.06196916 -0.0472676 -0.0228623 0.034056395 -0.06069541
0.025083572 0.024616897 -0.061045066 -0.05307226 -0.048055336 -0.0875528 0.035370767 -0.12462725
0.057222933 0.0005187392 0.033510223 0.10616733 0.02087985 0.012897536 -0.031472236 -0.026601136
-0.07992382 0.06663294 -0.0075173974 -0.099581584 -0.10544406 -0.12466428 -0.07773194 -0.12009379
0.036243588 -0.123623654 0.07570709 0.02689308 -0.010571867 -0.064477384 0.0146270245 0.0036566406
-0.04578662 0.081085354 -0.018105581 -0.0799731 0.08761984 0.109819025 -0.02913627 -0.039081827
-0.061207548 -0.011762962 0.11065368 -0.10635361 -0.02151993 -0.02455625 -0.040416464 -0.0177989
0.115493715 0.07063854 -0.08909947 -0.002211243 -0.029491618 -0.04368329 0.062066212 0.097522095
0.07492691 -0.014391363 0.09482388 -0.10968667 -0.11329512 -0.019176781 -0.076332375 0.09966071
-0.06775534 -0.06324901 -0.080205634 -0.08892453 -0.038499802 -0.05423093 0.059825465 0.06300236
0.058086634 -0.059915915 0.00594157 -0.0607453 0.09096371 -0.11675304 0.032666937 0.024364367
0.044273704 -0.08038016 0.0014195442 -0.10103494 0.11725509 -0.050420627 -0.027512193 -0.0072334856
0.11704485 -0.0069595426 0.122968405 -0.056766286 0.08393264 -0.04787524 -0.052054703 0.0017461181
-0.0105457455 0.08624956 0.11176643 0.087775856 -0.124485075 0.107886165 0.0002953112 -0.087728605
-0.05505584 -0.042264655 -0.016783819 0.11048859 0.07536614 -0.017682433 -0.048860505 -0.070787296
-0.05492039 -0.07059145 0.015565634 -0.001580447 0.06920715 -0.08349761 0.046100467 0.110795766
-0.1121026 0.04203564 -0.098771304 0.043110043 -0.075566694 0.008557528 -0.083691984 -0.0059748143
-0.04334733 -0.084132925 0.025544882 0.0247294 0.07461952 0.040963426 -0.094633326 0.051540807
00000000: 040a c23f 2821 8c3f ea65 ba3f ece6 863f
00000010: 78e0 bb3f 14a1 383f fc18 6b3f 7052 d9bd
00000020: 7329 613f 269e 9e3f fefe f63d 518b ad3f
00000030: 31a1 ba3f 3aaa a83f 026e a93f 5fa8 a03f
00000040: c492 8f3f 09c0 893f b798 60bd a1a2 9d3f
00000050: 2571 a43f cdf8 d83f 273a a33f 5fc8 983f
00000060: 4a13 a23f 72c8 c13f 6b7f a43f f866 6b3d
00000070: 5815 a53f fce2 a33f 9f0c bf3f 9740 b53f
00000080: f990 413f 586a 5fbd 84c8 b03f 6f8e ad3f
00000090: fbf5 913f ef86 723f 804e bd3f fe33 783f
000000a0: 53e2 8a3f a96f 643f fc2c d13f 001c e8bc
000000b0: 7085 8a3f 60e8 9a3f cabb 8e3f 2689 a33f
000000c0: 2923 b53f 0732 1f3f d2a2 7e3f 0029 a63f
000000d0: 8d21 4f3f e74f d83f 2f05 993f 721e a93f
000000e0: e182 973f f1a8 953f 4ed4 c43f 579e a13f
000000f0: 38bf 5e3d cc68 62bd d157 b63f 0cad 853f
00000100: d010 bdbd 4e12 acbd 18e7 bcbc 20a1 c3bd
00000110: 1cb8 ed3d 80be a2bd 808f da3d 9871 c9bc
00000120: 80f7 8dbc 36e0 aebd 5098 253c a811 d33c
00000130: 9678 e13d 60cc a63b 8064 473b 00dc b0bb
00000140: bc15 463d 80a1 b23b 76eb b93d f4d6 7c3d
00000150: d819 fb3c c6e7 84bd 2c4c af3d 80b8 e73a
00000160: 6037 97bb 28be 3fbd 9419 68bd 90b6 36bd
00000170: 00e9 9abb 70ce 25bd 8497 173d 8c00 a6bd
00000180: e06d aa3c f08a eebd 9c96 0bbd c0b5 b5bc
00000190: 0042 213d 0a77 a93d 0068 4f3b f679 a9bd
000001a0: a0f0 2b3d f8f2 e73c 40d5 cdbd f068 32bd
000001b0: 306b bc3d b049 38bd baed cdbd 84f3 143d
000001c0: 9e34 ae3d 2892 e1bc d243 88bd 60d3 7d3d
000001d0: ac9b 41bd b849 bbbc b87e 0b3d c09b 78bd
000001e0: 107c cd3c 60a9 c93c 640a 7abd 4c62 59bd
000001f0: acd5 44bd e24e b3bd f0e0 103d 923c ffbd
00000200: 9862 6a3d 00fc 073a 0442 093d 426e d93d
00000210: 380c ab3c 3050 533c 08e9 00bd a0ea d9bc
00000220: 1aaf a3bd da76 883d 8054 f6bb 6ef1 cbbd
00000230: 0ef3 d7bd fc4f ffbd ec31 9fbd bcf3 f5bd
00000240: 2874 143d 662e fdbd 520c 9b3d e04e dc3c
00000250: a035 2dbc b80c 84bd 30a6 6f3c 40a4 6f3b
00000260: c08a 3bbd 1410 a63d 2852 94bc f0c8 a3bd
00000270: 0872 b33d cce8 e03d 30af eebc 4414 20bd
00000280: c4b4 7abd 70b9 40bc 669e e23d eccf d9bd
00000290: 904a b0bc 302a c9bc bc8b 25bd 00cf 91bc
000002a0: f887 ec3d f0aa 903d c879 b6bd 80ea 10bb
000002b0: 6898 f1bc 40ed 32bd 2439 7e3d aab9 c73d
000002c0: 4873 993d c0c9 6bbc 0633 c23d 68a3 e0bd
000002d0: 4607 e8bd a018 9dbc 2654 9cbd ea1a cc3d
000002e0: 50c3 8abd b288 81bd da42 a4bd 101e b6bd
000002f0: f8b1 1dbd 4021 5ebd 8c0b 753d 6207 813d
00000300: 40ec 6d3d 646a 75bd 80b1 c23b 10d0 78bd
00000310: 2e4b ba3d 381c efbd c4cd 053d c897 c73c
00000320: 5858 353d 5a9e a4bd 0010 ba3a 68eb cebd
00000330: 7023 f03d dc85 4ebd 4061 e1bc e006 edbb
00000340: 36b5 ef3d e00c e4bb dcd6 fb3d c483 68bd
00000350: e0e4 ab3d d418 44bd 5037 55bd 00de e43a
00000360: 10c8 2cbc 9ca3 b03d cce5 e43d d4c3 b33d
00000370: 08f2 febd 6cf3 dc3d 00d4 9a39 0eab b3bd
00000380: 3c82 61bd b41d 2dbd 387e 89bc d847 e23d
00000390: 9059 9a3d c0da 90bc f421 48bd eef8 90bd
000003a0: 34f4 60bd 4092 90bd 0007 7f3c 0027 cfba
000003b0: 7abc 8d3d cc00 abbd d8d3 3c3d e4e8 e23d
000003c0: 0c96 e5bd 902d 2c3d 9c48 cabd 2894 303d
000003d0: b6c2 9abd e034 0c3c b466 abbd 60c8 c3bb
000003e0: f88c 31bd e24d acbd 8043 d13c 5095 ca3c
000003f0: 1ed2 983d 44c9 273d 1ecf c1bd 741c 533d

fc2.bias f4 [64]
1.4404895 -0.11573599 0.009733781 0.0028617978 1.5374321 1.4669604 1.6042405 1.5835066
-0.08358079 0.07537812 0.089854315 1.612923 0.057055052 0.01020251 0.0181723 -0.063824445
0.020429777 1.5660975 -0.059795246 -0.10555908 1.5701208 1.4436291 -0.11070951 0.002501905
1.4619173 -0.07019039 1.4672687 0.0862486 -0.09306872 1.4325215 1.4434164 -0.013616443
1.5990164 1.589687 1.5695797 0.08981205 -0.0027032888 1.5280824 1.5835623 0.06905719
1.5269899 -0.045985766 -0.047745638 -0.08894828 1.4893026 1.397486 1.5296019 1.4032876
0.103910506 -0.0057787495 0.052897777 1.427099 1.6055018 1.6339967 -0.05267276 0.023778532
1.5120952 1.4080964 -0.13551666 -0.01643184 -0.1262395 -0.061739832 -0.025637642 1.5570866
00000000: f661 b83f fe06 edbd 707a 1f3c 008d 3b3b
00000010: 93ca c43f 5cc5 bb3f c157 cd3f 58b0 ca3f
00000020: 682c abbd d85f 9a3d 8a05 b83d 4374 ce3f
00000030: 8fb2 693d 6e28 273c 13de 943c 64b6 82bd
00000040: 595c a73c e275 c83f dceb 74bd 5c2f d8bd
00000050: b8f9 c83f d7c8 b83f abbb e2bd 00f7 233b
00000060: 1b20 bb3f fbbf 8fbd 76cf bb3f 1ba3 b03d
00000070: d09a bebd dd5c b73f dec1 b83f 8017 5fbc
00000080: 92ac cc3f dd7a cb3f fde7 c83f 61ef b73d
00000090: a929 31bb 3498 c33f 2bb2 ca3f db6d 8d3d
000000a0: 6874 c33f 925b 3cbd ee90 43bd 842a b6bd
000000b0: 78a1 be3f d2e0 b23f ffc9 c33f ee9e b33f
000000c0: 08cf d43d aa5b bdbb 57ab 583d 2eab b63f
000000d0: 1581 cd3f ce26 d13f 64bf 57bd 32cb c23c
000000e0: 568c c13f 813c b43f e1c4 0abe 119c 86bc
000000f0: ed44 01be e8e2 7cbd 0806 d2bc 9d4e c73f

fc3.weight f4 [3, 64]
0.86207736 -0.012715161 0.09450075 0.09514445 0.98251027 0.9715073 0.9077059 0.84063864
0.08550756 0.1353639 0.058721032 1.0269637 0.12348963 0.051944166 -0.031068241 0.055536825
-0.106585026 0.8474165 -0.010835677 0.009615973 0.9722361 0.9017887 0.11070153 -0.074985355
0.9442096 0.10613486 0.9983357 0.054851282 -0.054248333 0.90795755 0.87085027 0.12128961
0.9802768 0.86585057 0.95467925 0.110162035 0.06637727 0.9868717 0.8638345 0.05219438
0.8320449 -0.10945322 -0.03300002 0.021725342 0.93827426 0.8598421 1.0429314 0.8947537
0.08958612 -0.078419715 0.0010327953 0.92199147 1.0576836 0.9370955 0.014875773 0.11365322
0.99723935 0.91835713 -0.022394717 0.105161004 0.070582286 0.014937654 0.040535957 0.94514644
0.0127342045 0.11281425 -0.02861914 0.12030563 -0.08207449 0.12029308 -0.11646415 0.09310457
-0.100429446 -0.03935276 -0.029912546 0.08798908 -0.07010347 -0.04192683 0.012901723 -0.07278362
0.0750664 -0.05931446 0.05707605 -0.11321646 -0.07373157 -0.07688415 -0.12027864 0.022388637
0.08103195 0.060248062 -0.115213946 0.048584998 -0.07107809 -0.11830348 -0.06495044 -0.024673834
0.06680314 -0.003211394 -0.09267376 0.0883535 0.04227513 0.03453006 0.092752874 0.046621323
-0.03609675 -0.0614312 0.017729983 -0.0018362999 -0.010703877 0.043223783 -0.064966306 -0.07432236
-0.044974774 0.10961987 0.110813364 0.055869147 0.046136886 -0.065991074 -0.07645558 0.0053650737
0.018809214 -0.046147853 0.01665388 -0.014672384 -0.052681923 -0.03979452 0.056009233 -0.058739364
1.3283088 0.08334011 0.045287997 0.0754468 1.3855067 1.3318034 1.2883472 1.311462
-0.11432071 -0.10075528 -0.048667274 1.2997367 -0.06655309 -0.06382349 -0.009267385 -0.039007895
-0.008891623 1.3817127 0.077255756 0.11461814 1.3359498 1.3895396 0.0005912258 0.034726232
1.318716 -0.09355376 1.319297 -0.05229947 0.12352 1.3631299 1.3689458 -0.0041982383
1.2881285 1.320703 1.3079343 -0.0836828 -0.013833972 1.2876964 1.308182 -0.021585483
1.3764296 -0.098521195 -0.0071163494 0.006454259 1.3798839 1.3093541 1.293986 1.3094506
-0.054323163 -0.014995538 -0.042855926 1.3920466 1.3187208 1.2793155 -0.0176685 -0.02858372
1.3520598 1.3557725 -0.007765586 -0.0881362 -0.07494312 -0.051709026 0.0032998323 1.2794191
00000000: 1ab1 5c3f 4053 50bc 9c89 c13d 18db c23d
00000010: cb85 7b3f b4b4 783f 6a5f 683f 1834 573f
00000020: 961e af3d d69c 0a3e 7785 703d 8c73 833f
00000030: 22e8 fc3d 68c3 543d d382 febc 957a 633d
00000040: 4049 dabd 4af0 583f 2088 31bc 508c 1d3c
00000050: 77e4 783f a0db 663f 7cb7 e23d ec91 99bd
00000060: b8b7 713f 3c5d d93d ee92 7f3f bdab 603d
00000070: 8033 5ebd e86f 683f 0bf0 5e3f b066 f83d
00000080: 6cf3 7a3f 62a8 5d3f dc65 743f a29c e13d
00000090: cef0 873d a0a3 7c3f 4224 5d3f c6c9 553d
000000a0: e500 553f 0329 e0bd 072b 07bd 58f9 b13c
000000b0: be32 703f 9d1e 5c3f c77e 853f 940e 653f
000000c0: ed78 b73d 849a a0bd dc5e 873a a207 6c3f
000000d0: 2d62 873f 7ee5 6f3f 84b9 733c 05c3 e83d
000000e0: 144b 7f3f 7419 6b3f 2075 b7bc a75e d73d
000000f0: 728d 903d 10bd 743c 0809 263d 1ef5 713f
00000100: 20a3 503c 280b e73d b072 eabc cc62 f63d
00000110: ac16 a8bd 385c f63d c284 eebd 9cad be3d
00000120: f4ad cdbd 5c30 21bd 280b f5bc 9e33 b43d
00000130: 6892 8fbd 78bb 2bbd c061 533c 940f 95bd
00000140: 6abc 993d b8f3 72bd 94c8 693d 08de e7bd
00000150: 9400 97bd 7075 9dbd a654 f6bd 6068 b73c
00000160: 14f4 a53d acc6 763d 4af5 ebbd 1001 473d
00000170: 6491 91bd 1849 f2bd bc04 85bd c820 cabc
00000180: 16d0 883d 4076 52bb becb bdbd aef2 b43d
00000190: b028 2d3d 646f 0d3d 38f5 bd3d 00f6 3e3d
000001a0: 30da 13bd 489f 7bbd 783e 913c 00b0 f0ba
000001b0: 505f 2fbc 6c0b 313d 0e0d 85bd 5236 98bd
000001c0: 7837 38bd 6280 e03d 1ef2 e23d 0cd7 643d
000001d0: 08fa 3c3d 5426 87bd be94 9cbd 80cd af3b
000001e0: c815 9a3c 8805 3dbd b86d 883c 7064 70bc
000001f0: 00c9 57bd 94ff 22bd f069 653d b098 70bd
00000200: 0606 aa3f 38ae aa3d e87f 393d da83 9a3d
00000210: 4958 b13f 8978 aa3f 90e8 a43f fddd a73f
00000220: fa20 eabd c958 cebd 5657 47bd c65d a63f
00000230: fd4c 88bd e4b5 82bd 3bd6 17bc bec6 1fbd
00000240: 2bae 11bc f6db b03f 4438 9e3d eabc ea3d
00000250: 6700 ab3f 6fdc b13f 7efc 1a3a 183d 0e3d
00000260: b0cb a83f 1d99 bfbd b9de a83f f837 56bd
00000270: 0ef8 fc3d 0a7b ae3f 9e39 af3f 6091 89bb
00000280: 65e1 a43f cc0c a93f 646a a73f e361 abbd
00000290: e2a7 62bc 3cd3 a43f 8272 a73f 0ad4 b0bc
000002a0: d82e b03f 7bc5 c9bd 4430 e9bb 407e d33b
000002b0: 09a0 b03f ea98 a73f 55a1 a53f 149c a73f
000002c0: f781 5ebd d8af 75bc b289 2fbd 952e b23f
000002d0: d8cb a83f 9cc0 a33f 88bd 90bc 6828 eabc
000002e0: 4c10 ad3f f489 ad3f 7576 febb c180 b4bd
000002f0: c77b 99bd d8cc 53bd 0042 583b 01c4 a33f

fc3.bias f4 [3]
0.69383144 -0.04626602 1.1394432
00000000: f09e 313f 7081 3dbd 46d9 913f
