Reinforcement learning/dqn_model.pth (torch, 6887 bytes, 5 tensors)

fc1.weight f4 [128, 4]
000000 f0 fb cb 3d 40 1a 7e be fc 67 05 be 56 e1 d6 be
       0.09960163 -0.24814701 -0.13027948 -0.41968793
000010 d0 23 ba 3d c0 89 6c be 16 78 a2 be 88 2d 4d 3e
       0.09088862 -0.23099422 -0.31732243 0.200369
000020 58 a6 e9 be e0 fc 07 3d 88 43 23 be 50 e4 b6 3e
       -0.45634723 0.033200145 -0.1594373 0.35721064
000030 d9 54 fc 3e 22 a4 a2 be 29 2a 0f bd dc 32 01 be
       0.49283484 -0.31765848 -0.034952316 -0.12617058
000040 ae 36 d3 3e 3a 23 e3 3d 8e 95 1a 3e e1 7b 53 3e
       0.41252655 0.11090703 0.15096113 0.20652725
000050 b1 dd a7 be 86 bd f2 3e b7 71 c0 3e e0 40 2d 3d
       -0.32786325 0.4741022 0.37586758 0.042298198
000060 b2 61 9a 3e 86 e8 a6 3e 5f fd 9e bb 11 bb fa be
       0.3015266 0.32599276 -0.0048519815 -0.48970845
000070 02 40 7e be bf f0 9f be 4f a0 cf 3e b5 e1 0c 3f
       -0.24829105 -0.31238362 0.40551993 0.550319
000080 ca bf aa be 15 0f 61 3d b0 fa c5 3e f0 46 88 3e
       -0.33349448 0.054946024 0.38667822 0.2661662
000090 96 34 a2 3f ac 6a 42 3f 38 d1 b7 3f f1 28 b9 3f
       1.2672298 0.7594402 1.4360723 1.4465619
0000a0 26 fa ba 3e 0b d7 09 3f 66 2d 5a be 8b 0a b2 3d
       0.36518973 0.53843755 -0.2130638 0.08693417
0000b0 46 a5 4b 3f 6d c8 27 bf 9f 54 4d be 87 f6 cb 3e
       0.7954906 -0.655402 -0.20051812 0.39836523
0000c0 a3 3d ef 3e 17 ff 8b be 3e 56 5f 3e 45 a5 90 be
       0.46726713 -0.27343056 0.21810243 -0.2825109
0000d0 79 de 42 3e 8c b7 30 bd 91 54 ab 3e b8 87 fc bd
       0.19030179 -0.043143794 0.33462957 -0.12330574
0000e0 4d 13 87 bc e8 00 9c be df a7 a2 be 8c 13 3a be
       -0.016488696 -0.3046944 -0.317687 -0.18171519
0000f0 81 e8 98 bd 8b ee 50 3f e2 21 4e 3e 6f 32 7f be
       -0.074662216 0.8161399 0.20130113 -0.24921583
000100 b1 79 c5 3e bc c9 19 be fb 31 0c 3e 80 ae e5 3e
       0.38569406 -0.15018362 0.13690941 0.44859695
000110 44 bd e4 3e 2b 58 a2 3c 94 5d 8c be 4d 7d e2 3e
       0.44675648 0.019817432 -0.27415144 0.44236222
000120 fa 6e a0 be 07 dc cf 3d 3b e6 13 be 1e 24 d8 3e
       -0.31334668 0.10149389 -0.14443295 0.42215055
000130 46 c7 92 be 63 e2 13 3f f0 d3 c6 3e 71 a3 bc be
       -0.2866766 0.57767314 0.3883357 -0.36843446
000140 eb fd da be 48 e3 ad be d2 90 16 3e e5 68 b4 3d
       -0.4277185 -0.33962464 0.14703682 0.088090695
000150 90 5b 70 3e a3 d8 0c be f9 c0 cb 3e 1a c6 5c be
       0.23472428 -0.13754515 0.39795664 -0.21559945
000160 2a 04 82 be b3 9d 37 3e 56 4e 55 3e f4 bf 8f be
       -0.25393802 0.17931251 0.20830664 -0.28076136
000170 3c a5 b8 be f9 4e d6 3e 86 0e 40 3e d6 68 da be
       -0.36063564 0.41857126 0.1875554 -0.42658108
000180 d8 a4 6f 3d 34 b3 33 3f 87 86 82 3d 3e ee 34 be
       0.058506817 0.7019532 0.06373315 -0.17669007
000190 3f 7b c5 3e 50 84 c0 3d 07 87 a6 3e 25 9b 1c be
       0.38570592 0.094002366 0.32524893 -0.15293558
0001a0 38 10 df 3f db 08 04 3f 7b c2 bc 3f fd d0 97 3f
       1.7426825 0.5157601 1.4746851 1.1860653
0001b0 b7 74 dc 3e 5e 8a f4 3d 6e bd 3d 3e d0 45 2a 3e
       0.43057796 0.11940454 0.18529293 0.16628194
0001c0 1d ba 50 3e ef 4c 00 3f 44 e1 a0 bd 4c ab 7f be
       0.20383497 0.5011739 -0.07855466 -0.24967688
0001d0 34 b2 39 3e fe 04 e5 3e c5 91 14 be 87 d0 a5 3e
       0.18134385 0.4473037 -0.14508732 0.32385656
0001e0 6c 32 f5 3e 7f a5 f6 3e 54 72 db be 7d 46 b3 3e
       0.4789003 0.48173138 -0.42860663 0.35014716
0001f0 15 3b 8f 3e f7 7c 02 3f a5 92 74 3e 34 8e 89 be
       0.27974764 0.5097193 0.23884065 -0.26866305
000200 97 0e 88 3e f2 de 45 3e 40 64 e3 3e 4e b1 aa 3e
       0.2657363 0.19323328 0.44412422 0.33338398
000210 4c 24 0b bf c5 2c 7a 3e 95 5a 8e be cc 7b 37 be
       -0.5435226 0.2443114 -0.27803484 -0.17918319
000220 4c d6 1a be 98 7f 6f be a6 c7 b8 be ee 86 b8 be
       -0.1512081 -0.23388517 -0.3608982 -0.36040443
000230 2e 99 73 be 12 68 df 3e aa b8 57 3e ff b0 ea 3e
       -0.23788902 0.43634087 0.21066537 0.45838162
000240 08 e1 ad 3e c6 45 d6 3e 4e c2 b4 3e fb c9 8b 3e
       0.33960748 0.41850108 0.35304493 0.27302536
000250 59 73 04 3f 17 6b ed be 8e 9a 61 3d 4a f6 ef 3e
       0.51738507 -0.46370766 0.055079035 0.4686759
000260 3b 63 29 3e 05 94 90 be 37 ad 81 3d 95 7c ee 3e
       0.1654176 -0.2823793 0.06331866 0.46579424
000270 1c 71 8e 3d b5 a3 dd 3e 07 ef 97 3e c1 f3 9e bd
       0.06955168 0.4328896 0.2967455 -0.07761336
000280 45 1e c2 be bc cc 42 3b d5 96 c5 be 83 51 2a be
       -0.3791372 0.0029724082 -0.38591638 -0.16632657
000290 b5 f8 34 3e 98 29 3b 3e 88 18 47 3d bb 34 62 3d
       0.17672999 0.18277586 0.04860738 0.05522607
0002a0 2d 4e e9 bc b7 91 31 3f 8d f5 8b be 53 2b 86 be
       -0.02847966 0.6936297 -0.27335778 -0.2620493
0002b0 c9 a1 0a 3c d5 5f 58 be 4f e3 a4 3e 38 cc ef 3d
       0.008461424 -0.21130307 0.32204673 0.117088735
0002c0 a0 4d 84 bc c0 e0 91 bc d0 e7 39 3d 72 af c7 be
       -0.016150296 -0.017807364 0.04538709 -0.39001042
0002d0 03 5a 5d 3d b4 54 0f 3f 85 9a 02 bf 6e 1a b5 be
       0.05404092 0.5598862 -0.5101703 -0.35371727
0002e0 11 b2 27 be 37 22 5d 3f 20 94 1b be f2 07 ee 3c
       -0.1637652 0.8638033 -0.15193224 0.029056523
0002f0 5a 27 3d 3e e7 cf 97 3e 18 f2 ce 3e 90 05 a9 3e
       0.18472043 0.29650804 0.40419078 0.33012056
000300 b7 bf 8b 3e 8c 1a 9a 3e e7 0d c6 bd 80 7a d6 be
       0.27294704 0.3009838 -0.096706204 -0.41890335
000310 00 74 e8 3e f6 22 19 3f 60 dc 05 3e 2b 33 b3 bc
       0.45401 0.5981897 0.13072348 -0.021874985
000320 cd 3b 0c 3f 7c 7d ce 3f db ca 81 3f 52 a7 93 3f
       0.5477875 1.6132045 1.0140032 1.1535437
000330 6c e1 03 3f 6e bd 62 be 4f b3 9d 3e 30 a9 31 3e
       0.5151584 -0.22142574 0.30800864 0.17349696
000340 e3 7e e2 3d 54 ce 0c 3f a7 ae 39 be e5 67 ab 3e
       0.11059358 0.5500233 -0.18133031 0.33477703
000350 5e 14 fa be 88 9b 20 be f0 09 fd be 88 b1 1c 3e
       -0.48843664 -0.1568433 -0.49421644 0.15302098
000360 75 b6 8b 3e d7 5d 17 3e 81 0f c5 3e 40 be f3 3c
       0.2728764 0.14781891 0.3848839 0.029753804
000370 a7 1e d8 3e 0d 3c 03 3f ea 6b 93 be 68 7f 94 be
       0.42210886 0.51263505 -0.2879327 -0.29003453
000380 93 1d ca 3e 1b bf f8 bd 51 8a 38 3e cd 7f 18 3e
       0.39475688 -0.121458255 0.18021514 0.14892502
000390 b4 65 b7 be 58 24 41 3e 40 fe 87 bc 58 62 4c 3e
       -0.3581978 0.1886152 -0.016600728 0.1995939
0003a0 b3 d9 45 3d ee 36 c0 3e 23 8a b7 be 69 50 3f 3b
       0.048303317 0.37541908 -0.35847577 0.0029192215
0003b0 e1 5c df be 59 4d 86 3e b9 27 54 3e ad 64 6f 3e
       -0.43625548 0.26230887 0.20718278 0.23378249
0003c0 17 0d a1 3e 97 6c 25 bc 3d 28 2a be d7 b9 9c be
       0.314553 -0.010096691 -0.16616912 -0.30610535
0003d0 f9 e0 ae 3e 3d 7d 77 bd c3 23 f8 3e 18 c1 d5 3c
       0.34156016 -0.06042217 0.48464784 0.02609305
0003e0 1e ef 97 be c4 07 2e 3e 80 14 67 3c 08 73 35 be
       -0.2967462 0.1699515 0.014104009 -0.17719662
0003f0 42 22 44 3e 04 e1 f9 3e bb 12 fb bd ef 97 cb 3e
       0.19153693 0.48804486 -0.12259432 0.39764354

fc1.bias f4 [128]
000000 68 3c 5c be 26 d0 99 be 18 0d c6 be 38 52 85 40
       -0.21507418 -0.30041617 -0.38681865 4.1662865
000010 fe bd 60 40 7c a5 6e 40 ea 33 7d 40 75 83 6a 40
       3.5115962 3.7288504 3.9562936 3.6642735
000020 07 af 6e 40 38 4c 79 bf b9 14 86 40 a4 72 a5 3f
       3.7294328 -0.97381926 4.1900296 1.292561
000030 a5 f1 7a 40 54 a4 05 bf 87 55 8c 40 ce 42 74 40
       3.9209988 -0.5220387 4.3854403 3.8165774
000040 a5 63 60 40 ec 82 7b 40 72 70 87 40 1c 0f 8b 40
       3.5060818 3.9298658 4.232476 4.3455944
000050 f8 7f 8f 40 c5 cf 74 40 17 be 8f 40 00 e3 85 40
       4.484371 3.8251812 4.4919543 4.18396
000060 01 56 6c 40 5a ef 76 40 b9 86 70 bf 42 5c 5c 40
       3.6927493 3.8583589 -0.9395557 3.443131
000070 7a 45 71 40 fd 43 6d 40 b0 12 84 40 5d c9 68 40
       3.7698655 3.7072747 4.127281 3.6372902
000080 d1 93 7a 40 40 63 7a be 40 fa ff be f1 31 88 40
       3.915272 -0.24451923 -0.49995613 4.2560964
000090 d1 0f 6f 40 15 f2 80 40 50 af 8b 40 8b 96 6a 40
       3.7353404 4.029551 4.3651505 3.6654384
0000a0 39 d6 90 40 2d 74 87 40 e3 a9 82 40 da bc 7c 40
       4.52615 4.2329316 4.083238 3.9490266
0000b0 6c 72 59 be dd 74 88 40 5e ff 78 40 9a 1d 84 40
       -0.21235055 4.2642655 3.8905864 4.1286135
0000c0 d3 b3 8d 40 7b 61 74 40 9c 1f 72 bf 67 0b 8a 40
       4.428201 3.8184497 -0.9457948 4.313892
0000d0 f3 05 7f 40 64 dd 63 be 4c d3 8d 40 22 4e 86 40
       3.984738 -0.22252423 4.432043 4.1970377
0000e0 03 fa 64 40 9e af f9 be 4e 50 83 40 39 d2 81 40
       3.5777595 -0.48766798 4.103553 4.056912
0000f0 73 06 80 40 b7 a9 63 40 a0 95 66 be 26 e8 83 40
       4.0007873 3.5572336 -0.22518015 4.1220884
000100 c5 34 81 40 d3 94 5a 40 5c f0 a2 be c0 91 7e 40
       4.0376916 3.4153335 -0.31824005 3.9776459
000110 79 ef 7f 40 4a 6d 87 40 c7 47 6f 40 19 f4 80 40
       3.9989913 4.232091 3.738756 4.029797
000120 71 0b 74 40 c4 58 82 40 28 5b bf be 2d 4a 82 40
       3.8131983 4.0733356 -0.37374234 4.0715547
000130 c9 fd 89 40 9f cb 85 40 80 fa 6c 40 70 7b cc bd
       4.3122296 4.181106 3.7027893 -0.09984481
000140 35 8b 89 40 34 9a 8c 40 2f bd 7e 40 06 6c 86 be
       4.298243 4.3938236 3.9802969 -0.2625429
000150 62 98 d2 be 74 a1 7e 40 32 7e 6d 40 cb 11 7c 40
       -0.41131884 3.9786043 3.7108274 3.938586
000160 29 81 8c 40 28 ea 7d 40 90 eb 79 40 54 05 8b 40
       4.3907666 3.9674168 3.9050026 4.3444004
000170 2d aa 89 40 f3 f5 8f 40 44 6f 85 40 4d 1e 81 40
       4.3020234 4.498773 4.169832 4.034949
000180 b9 b3 8c 40 69 fc 8b 40 23 5a 79 40 5f 19 81 40
       4.396939 4.374562 3.8961265 4.034347
000190 b7 a4 8b 40 90 4c a8 be eb 93 6e 40 c6 d0 63 40
       4.363857 -0.32870913 3.7277782 3.5596175
0001a0 7b 38 9d be ca 23 e0 be 80 55 8a 40 99 50 86 40
       -0.30707154 -0.43777305 4.322937 4.1973386
0001b0 49 84 87 40 91 62 72 40 d8 0e 82 40 97 1e 83 40
       4.234898 3.787266 4.064312 4.097484
0001c0 d9 a6 4d bf 44 05 a6 be aa 94 ee be 06 01 f0 be
       -0.80332714 -0.32425892 -0.46597797 -0.4687578
0001d0 68 2c b2 be c3 31 85 40 84 66 cd be e3 b7 8d 40
       -0.34799504 4.1623244 -0.40117276 4.428697
0001e0 b6 5c 88 40 c0 21 bc be 64 17 6f 40 5f c2 87 40
       4.2613173 -0.367445 3.7358027 4.242477
0001f0 36 19 88 40 46 2e 72 40 a0 c3 0f be 2d 62 90 40
       4.2530775 3.7840743 -0.14039469 4.5119843

fc_value.weight f4 [1, 128]
000000 68 64 fa 3c 6f d5 b3 3d ed 00 a6 3d 0f 11 5f 40
       0.030565456 0.087809436 0.08105645 3.4854162
000010 aa c5 22 40 33 9a 4a 40 8d fd 65 40 d1 c0 3c 40
       2.5433145 3.1656616 3.5936005 2.9492686
000020 1b 1e 54 40 1c 5f f1 bf cb 01 3f 40 61 0c ea 3f
       3.3143375 -1.885715 2.9844844 1.8285028
000030 a8 38 59 40 c4 17 3f 3a 7a 2d 91 40 29 27 46 40
       3.394083 0.0007289613 4.5368013 3.0961401
000040 61 05 25 40 6c 14 3c 40 ca 38 5f 40 26 b3 4f 40
       2.5784533 2.9387465 3.4878411 3.2453094
000050 ca a3 81 40 28 9f 53 40 98 35 6a 40 3a 16 75 40
       4.051244 3.3065891 3.659521 3.8294816
000060 1c 62 49 40 c5 f1 3b 40 51 ed dd bf 62 1b 27 40
       3.1466131 2.9366314 -1.7338048 2.6110463
000070 14 ad 55 40 0e 61 32 40 77 95 33 40 e3 97 39 40
       3.3386889 2.7871737 2.8059976 2.8998954
000080 58 8d 22 40 8a 46 44 bd 62 43 72 bd 71 3b 36 40
       2.539877 -0.047918834 -0.059146293 2.847378
000090 12 db 19 40 81 98 3b 40 12 3b 4a 40 ae 58 39 40
       2.403996 2.931183 3.1598554 2.8960376
0000a0 42 9b 91 40 12 b8 49 40 17 64 87 40 cf 50 50 40
       4.5502024 3.1518598 4.230968 3.2549322
0000b0 5b 9b a1 3d 44 e3 72 40 7a cd 71 40 8a 10 2c 40
       0.0789096 3.7951212 3.7781663 2.6885095
0000c0 da 9c 5c 40 bb 8f 23 40 6e f4 16 c0 f9 c8 39 40
       3.4470735 2.5556476 -2.3586688 2.9028914
0000d0 2b c1 3a 40 f0 34 fa 3b cf 6e 3b 40 5d fc 51 40
       2.91804 0.007635705 2.9286382 3.281028
0000e0 11 bc 2a 40 be 01 a4 bd ee 96 5e 40 b2 4d 51 40
       2.6677287 -0.08008145 3.477962 3.2703671
0000f0 15 7b 73 40 b3 d0 2d 40 e4 d2 8b 3c a5 ee 2d 40
       3.8043873 2.715863 0.017068334 2.7176907
000100 df 23 60 40 71 43 0e 40 9d 8e b9 bd 6a 3b 5d 40
       3.5021894 2.2228663 -0.090604044 3.4567513
000110 d2 e4 71 40 6c 71 75 40 6b 27 49 40 41 de 4a 40
       3.779591 3.8350477 3.143031 3.1698153
000120 85 76 51 40 43 01 5f 40 08 e3 5a bc fd 62 72 40
       3.2728589 3.484452 -0.0133597925 3.7872918
000130 44 d3 7f 40 34 c6 4d 40 cf 41 4d 40 cc 45 3f bd
       3.9972696 3.2152224 3.2071416 -0.046697423
000140 39 a3 45 40 21 f7 5f 40 f6 00 4f 40 32 8c 28 3d
       3.0880873 3.4994586 3.2344337 0.041149326
000150 f6 46 de bc 91 86 75 40 41 5b 68 40 27 be 55 40
       -0.027133446 3.8363383 3.6305697 3.339731
000160 b2 36 9a 40 92 db 6f 40 90 65 5d 40 62 18 67 40
       4.8191767 3.7477765 3.459324 3.6108632
000170 e2 48 4d 40 81 78 7d 40 f2 c8 78 40 41 51 6b 40
       3.2075734 3.96048 3.8872647 3.6768343
000180 cb 15 38 40 6a 55 73 40 9f f4 26 40 7c 04 75 40
       2.8763301 3.8020883 2.6086805 3.8283987
000190 15 e9 80 40 78 be 83 bc 84 af 55 40 b0 32 15 40
       4.0284524 -0.016082034 3.3388376 2.3312187
0001a0 de 27 07 c0 c7 09 4e bd c2 93 91 40 3e 92 79 40
       -2.1118083 -0.050302293 4.549287 3.899551
0001b0 99 bd 51 40 81 b5 52 40 5f ca 50 40 7e dc 47 40
       3.2771971 3.2923281 3.2623518 3.1228328
0001c0 cc 34 96 bf fc aa d7 3c b8 dc 23 bc 54 f5 18 bd
       -1.1734862 0.026326649 -0.010001354 -0.037343338
0001d0 e7 64 a0 3d 5a 0c 6d 40 c1 65 a7 bd c8 b9 34 40
       0.078317456 3.7038789 -0.08173705 2.8238392
0001e0 96 f8 4d 40 f9 60 97 3d 6e 87 36 40 d8 b0 51 40
       3.2182975 0.07391543 2.852016 3.2764187
0001f0 cd bb 4f 40 9c b1 4e 40 80 e0 6f bd 64 60 7e 40
       3.2458375 3.2295904 -0.05856371 3.9746332

fc_advantage.weight f4 [3, 128]
000000 32 0e 62 3d 8e a3 70 3d c0 13 f5 bc 02 18 62 c0
       0.05518932 0.058749728 -0.029916644 -3.5327153
000010 0a 6d 28 c0 08 a2 44 c0 cb 8d 61 c0 cf b8 37 c0
       -2.6316552 -3.0723896 -3.5242794 -2.8706548
000020 ae 07 52 c0 a0 a6 ed 3f 40 6e 3c c0 1d 21 f1 bf
       -3.2817187 1.8566475 -2.9442291 -1.883823
000030 ff 96 59 c0 f5 4a 78 3d 52 14 90 c0 f7 db 4c c0
       -3.399841 0.06061836 -4.5024805 -3.2009256
000040 a5 2f 22 c0 79 d4 3c c0 b7 72 5f c0 3a db 4f c0
       -2.534158 -2.9504683 -3.4913766 -3.2477555
000050 0b eb 7c c0 ea 02 51 c0 32 bd 65 c0 20 bd 79 c0
       -3.951846 -3.2658029 -3.5896726 -3.9021683
000060 de 6b 4a c0 99 f1 37 c0 f9 20 da 3f 30 5e 27 c0
       -3.1628337 -2.874121 1.7041312 -2.6151237
000070 6b 85 55 c0 a8 63 2c c0 38 64 37 c0 df 80 3b c0
       -3.3362682 -2.6935825 -2.8654919 -2.9297407
000080 65 b8 20 c0 f2 f6 67 bd 98 c0 2b bd 46 32 3c c0
       -2.5112545 -0.05663199 -0.04193172 -2.9405684
000090 b4 66 1a c0 cb 35 40 c0 9f 78 4b c0 b8 e5 35 c0
       -2.4125185 -3.0032833 -3.1792371 -2.842146
0000a0 0c 53 8f c0 48 ea 4a c0 e9 16 87 c0 a7 8a 54 c0
       -4.4788876 -3.1705494 -4.2215466 -3.3209627
0000b0 9a f1 67 3d e2 75 75 c0 5e 5a 6f c0 c7 ce 28 c0
       0.056626894 -3.83532 -3.7398906 -2.6376207
0000c0 d9 93 5d c0 fa 21 25 c0 0a a2 0d 40 d6 97 3e c0
       -3.462149 -2.5801988 2.213015 -2.9780173
0000d0 8a c8 35 c0 e6 5f 54 3d e5 74 38 c0 a3 ab 4c c0
       -2.840365 0.05184927 -2.8821347 -3.1979759
0000e0 a1 d9 30 c0 32 dc 7e 3d 4a a2 63 c0 90 7b 54 c0
       -2.763283 0.062221713 -3.5567803 -3.3200417
0000f0 46 9f 7c c0 58 25 2c c0 a6 9e 58 bd 98 b4 33 c0
       -3.9472213 -2.6897793 -0.052885674 -2.8078976
000100 ba 29 5f c0 19 02 0a c0 7c fc fe bc bc 4e 5c c0
       -3.4869218 -2.156378 -0.031126253 -3.4423056
000110 66 4a 78 c0 15 c5 73 c0 db 19 3f c0 b7 50 4e c0
       -3.879541 -3.808904 -2.985953 -3.2236764
000120 31 97 55 c0 d1 c7 5e c0 22 90 6b bd e6 20 7b c0
       -3.337353 -3.4809458 -0.057510503 -3.923883
000130 e0 d8 80 c0 fb 1f 51 c0 ac 8d 4c c0 30 68 75 bc
       -4.026474 -3.267577 -3.196147 -0.0149784535
000140 6a 49 43 c0 82 26 63 c0 0b b2 4f c0 8c 4b b9 3c
       -3.0513558 -3.5492253 -3.2452419 0.022619031
000150 40 21 cf 3c 2d d5 76 c0 40 ed 62 c0 9f 49 4f c0
       0.02528441 -3.8567612 -3.5457306 -3.2388685
000160 78 55 9b c0 fd 22 70 c0 7c 69 63 c0 5d 46 66 c0
       -4.854183 -3.7521355 -3.5533133 -3.5980446
000170 7a 05 51 c0 82 2c 80 c0 40 ff 71 c0 22 ff 6e c0
       -3.2659593 -4.005433 -3.7812042 -3.734322
000180 d2 7f 37 c0 57 f6 72 c0 79 64 25 c0 71 36 74 c0
       -2.8671765 -3.7962854 -2.5842574 -3.8158228
000190 a0 21 81 c0 d7 18 2c bd f3 ab 57 c0 bc a6 15 c0
       -4.0353546 -0.042015877 -3.36987 -2.3383017
0001a0 7e a7 08 40 e6 7f 78 bd ad e3 93 c0 54 ee 7a c0
       2.135223 -0.06066885 -4.6215425 -3.9207964
0001b0 92 80 50 c0 2c 79 53 c0 c0 d8 57 c0 c4 1e 4a c0
       -3.2578473 -3.3042707 -3.3726044 -3.1581278
0001c0 7b a9 95 3f c8 57 d0 3c 80 c1 52 bb 2a f7 74 3d
       1.1692346 0.025432482 -0.0032158792 0.059806027
0001d0 40 87 84 bd 79 b9 6f c0 39 13 80 3d 11 3d 35 c0
       -0.064711094 -3.7456954 0.062536664 -2.8318522
0001e0 a9 12 53 c0 ba cf 66 3d 2c 63 34 c0 d8 ea 50 c0
       -3.298014 0.056350447 -2.818553 -3.2643337
0001f0 9c b1 52 c0 a9 2e 4d c0 72 b5 b4 bd 35 1e 80 c0
       -3.2920904 -3.205973 -0.088236704 -4.0036874
000200 da a0 17 3d 25 6d ad bd b2 27 29 bd e9 69 57 40
       0.037018634 -0.08468083 -0.041297622 3.3658392
000210 4c f8 25 40 8c 4c 43 40 f6 ca 63 40 9d 8b 32 40
       2.5932798 3.051547 3.5592628 2.7897713
000220 6c 0a 52 40 74 b0 f8 bf e7 2f 38 40 6f 66 f0 3f
       3.281886 -1.9428849 2.8779237 1.878126
000230 cb d9 51 40 de 33 87 3c 62 96 90 40 3c 76 46 40
       3.278918 0.016504224 4.5183573 3.1009665
000240 49 18 22 40 7e 91 3f 40 05 fa 58 40 a6 d4 55 40
       2.5327322 2.9932551 3.39026 3.341104
000250 65 a2 7c 40 e7 f4 50 40 87 05 67 40 48 0e 7a 40
       3.9474118 3.2649477 3.6097124 3.9071217
000260 68 92 4b 40 cf 05 3d 40 53 dc dd bf 50 35 1f 40
       3.180811 2.9534795 -1.7332863 2.487629
000270 00 fa 4c 40 76 19 33 40 fb 06 3b 40 ec 64 3e 40
       3.2027588 2.798429 2.922301 2.9749098
000280 c8 7e 25 40 30 d2 8c bd fe a6 42 3d 20 d2 3e 40
       2.585863 -0.068760276 0.047522537 2.981575
000290 0e 2f 17 40 e4 94 40 40 2f a4 48 40 10 7c 30 40
       2.362247 3.0090876 3.135021 2.7575722
0002a0 4a ff 92 40 f7 1e 4b 40 f8 49 85 40 23 c6 51 40
       4.593663 3.173765 4.1652794 3.2777183
0002b0 d0 df f9 bb 34 2f 76 40 29 4b 70 40 a1 57 2a 40
       -0.0076255575 3.846631 3.7545874 2.6615984
0002c0 3b 7b 5e 40 46 59 29 40 65 4a 0e c0 8e 5f 40 40
       3.4762714 2.6460738 -2.2232907 3.0058322
0002d0 7e d5 38 40 3e ed 42 bd f7 cf 40 40 99 e8 4e 40
       2.8880305 -0.047589533 3.0126932 3.2329466
0002e0 b2 dd 31 40 05 3c 90 3d 21 4b 5f 40 92 5c 56 40
       2.7791562 0.07042698 3.4889605 3.3494
0002f0 8f 19 76 40 2b 0c 2c 40 b0 90 66 bc d4 a2 38 40
       3.84531 2.6882427 -0.014072582 2.8849382
000300 30 3c 62 40 bd 64 07 40 77 ef a1 3d ec af 5c 40
       3.5349236 2.1155236 0.079070024 3.4482374
000310 d5 5f 73 40 48 96 6e 40 ed 66 42 40 cc a8 4b 40
       3.8027241 3.7279224 3.037532 3.1821775
000320 30 23 57 40 22 fe 62 40 3a e6 66 3d 46 76 71 40
       3.3615227 3.546761 0.056371905 3.7728438
000330 d3 59 77 40 83 38 51 40 ed 5a 49 40 e0 8f 49 bb
       3.8648574 3.2690742 3.1461747 -0.0030755922
000340 5b b0 44 40 d8 d3 64 40 a6 5c 52 40 72 c8 a6 bd
       3.073264 3.57543 3.2869048 -0.08143701
000350 5e 58 4f 3d 5b 65 76 40 30 64 6a 40 33 e1 52 40
       0.050621383 3.8499362 3.662365 3.294995
000360 7c 36 9e 40 cf 33 6a 40 13 a7 65 40 1c 78 67 40
       4.944151 3.6594121 3.5883224 3.616706
000370 c8 5e 51 40 c8 74 7c 40 d2 7c 77 40 24 c8 6c 40
       3.27141 3.9446278 3.8669934 3.6997156
000380 a7 18 36 40 af e6 6d 40 34 83 24 40 8c ed 70 40
       2.8452547 3.7172048 2.570508 3.7644987
000390 d6 bd 81 40 f2 80 5b 3d a3 d0 51 40 d6 a7 19 40
       4.0544233 0.05358977 3.2783592 2.400869
0003a0 6c b0 04 c0 33 33 99 3d 3d c5 93 40 22 19 79 40
       -2.073268 0.074804686 4.617827 3.892159
0003b0 84 84 57 40 21 8c 54 40 f3 f5 4f 40 d2 91 46 40
       3.367463 3.3210528 3.2493865 3.1026502
0003c0 c8 4c 9f bf d3 a0 b4 3d 00 25 c5 3a 2d 4f a2 3d
       -1.2445307 0.08819737 0.0015040934 0.07925258
0003d0 48 dc 11 3c a6 7e 73 40 64 c1 bd 3c c2 a5 3e 40
       0.008902617 3.804605 0.023163505 2.978867
0003e0 79 c8 56 40 48 3a f1 3c 10 b9 3c 40 df 3c 53 40
       3.3559859 0.029446736 2.9487953 3.3005903
0003f0 ce 63 56 40 76 2b 51 40 6e 6b 2c 3d 85 51 82 40
       3.3498416 3.2682776 0.04209464 4.072451

fc_advantage.bias f4 [3]
000000 37 f3 63 c0 9a 09 65 40 d7 c7 63 c0
       -3.5617197 3.578711 -3.5590723
